absplice/precomputed/AbSplice_RNA.onnx (onnx, 67617 bytes, 39 tensors)

bin_scores_0 f4 [256, 1]
000000 00 00 00 00 5c db 82 3f 78 0c 8f 3f 83 5c 92 3f
       0.0 1.0223193 1.117568 1.1434482
000010 6c 34 92 3f ad 59 a5 3f 97 cb 8a 3f 48 e7 2b 3f
       1.1422248 1.2917992 1.0843381 0.6714978
000020 08 e6 31 3f 08 e6 31 3f ec 95 d9 3e ec 95 d9 3e
       0.69491625 0.69491625 0.42497194 0.42497194
000030 ec 95 d9 3e 8b e5 cc 3e 8b e5 cc 3e 4b 08 9c 3e
       0.42497194 0.40018877 0.40018877 0.30475077
000040 4b 14 8f 3e 4b 14 8f 3e 4b 14 8f 3e 4b 14 8f 3e
       0.2794517 0.2794517 0.2794517 0.2794517
000050 4b 14 8f 3e a6 f3 7e 3e e1 a7 7b 3e e1 a7 7b 3e
       0.2794517 0.24897632 0.2457576 0.2457576
000060 e1 a7 7b 3e 58 38 79 3e 58 38 79 3e 58 38 79 3e
       0.2457576 0.243379 0.243379 0.243379
000070 3d d1 67 3e 10 a8 2d bd 83 9a 2e bd 83 9a 2e bd
       0.22638412 -0.042396605 -0.042627823 -0.042627823
000080 83 9a 2e bd 83 9a 2e bd 83 9a 2e bd 83 9a 2e bd
       -0.042627823 -0.042627823 -0.042627823 -0.042627823
000090 83 9a 2e bd 83 9a 2e bd 83 9a 2e bd 83 9a 2e bd
       -0.042627823 -0.042627823 -0.042627823 -0.042627823
0000a0 83 9a 2e bd 83 9a 2e bd 83 9a 2e bd 83 9a 2e bd
       -0.042627823 -0.042627823 -0.042627823 -0.042627823
0000b0 83 9a 2e bd 83 9a 2e bd 83 9a 2e bd 83 9a 2e bd
       -0.042627823 -0.042627823 -0.042627823 -0.042627823
0000c0 83 9a 2e bd 83 9a 2e bd 83 9a 2e bd 83 9a 2e bd
       -0.042627823 -0.042627823 -0.042627823 -0.042627823
0000d0 83 9a 2e bd 83 9a 2e bd 83 9a 2e bd 83 9a 2e bd
       -0.042627823 -0.042627823 -0.042627823 -0.042627823
0000e0 83 9a 2e bd 83 9a 2e bd 83 9a 2e bd 83 9a 2e bd
       -0.042627823 -0.042627823 -0.042627823 -0.042627823
0000f0 83 9a 2e bd 83 9a 2e bd 83 9a 2e bd 83 9a 2e bd
       -0.042627823 -0.042627823 -0.042627823 -0.042627823
000100 83 9a 2e bd 83 9a 2e bd 83 9a 2e bd 83 9a 2e bd
       -0.042627823 -0.042627823 -0.042627823 -0.042627823
000110 83 9a 2e bd 83 9a 2e bd 83 9a 2e bd 83 9a 2e bd
       -0.042627823 -0.042627823 -0.042627823 -0.042627823
000120 83 9a 2e bd 83 9a 2e bd 83 9a 2e bd 83 9a 2e bd
       -0.042627823 -0.042627823 -0.042627823 -0.042627823
000130 83 9a 2e bd 83 9a 2e bd 83 9a 2e bd 83 9a 2e bd
       -0.042627823 -0.042627823 -0.042627823 -0.042627823
000140 83 9a 2e bd 83 9a 2e bd 83 9a 2e bd 83 9a 2e bd
       -0.042627823 -0.042627823 -0.042627823 -0.042627823
000150 83 9a 2e bd 83 9a 2e bd 83 9a 2e bd 83 9a 2e bd
       -0.042627823 -0.042627823 -0.042627823 -0.042627823
000160 83 9a 2e bd 83 9a 2e bd 83 9a 2e bd 83 9a 2e bd
       -0.042627823 -0.042627823 -0.042627823 -0.042627823
000170 83 9a 2e bd 83 9a 2e bd 83 9a 2e bd 83 9a 2e bd
       -0.042627823 -0.042627823 -0.042627823 -0.042627823
000180 83 9a 2e bd 83 9a 2e bd 83 9a 2e bd 83 9a 2e bd
       -0.042627823 -0.042627823 -0.042627823 -0.042627823
000190 83 9a 2e bd 83 9a 2e bd 83 9a 2e bd 83 9a 2e bd
       -0.042627823 -0.042627823 -0.042627823 -0.042627823
0001a0 83 9a 2e bd 83 9a 2e bd 83 9a 2e bd 83 9a 2e bd
       -0.042627823 -0.042627823 -0.042627823 -0.042627823
0001b0 83 9a 2e bd 83 9a 2e bd 83 9a 2e bd 83 9a 2e bd
       -0.042627823 -0.042627823 -0.042627823 -0.042627823
0001c0 83 9a 2e bd 83 9a 2e bd 83 9a 2e bd 83 9a 2e bd
       -0.042627823 -0.042627823 -0.042627823 -0.042627823
0001d0 83 9a 2e bd 83 9a 2e bd 83 9a 2e bd 83 9a 2e bd
       -0.042627823 -0.042627823 -0.042627823 -0.042627823
0001e0 83 9a 2e bd 83 9a 2e bd 83 9a 2e bd 83 9a 2e bd
       -0.042627823 -0.042627823 -0.042627823 -0.042627823
0001f0 83 9a 2e bd 83 9a 2e bd 83 9a 2e bd 83 9a 2e bd
       -0.042627823 -0.042627823 -0.042627823 -0.042627823
000200 83 9a 2e bd 83 9a 2e bd 83 9a 2e bd 83 9a 2e bd
       -0.042627823 -0.042627823 -0.042627823 -0.042627823
000210 83 9a 2e bd 83 9a 2e bd 83 9a 2e bd 83 9a 2e bd
       -0.042627823 -0.042627823 -0.042627823 -0.042627823
000220 83 9a 2e bd 83 9a 2e bd 83 9a 2e bd 83 9a 2e bd
       -0.042627823 -0.042627823 -0.042627823 -0.042627823
000230 83 9a 2e bd 83 9a 2e bd 83 9a 2e bd 83 9a 2e bd
       -0.042627823 -0.042627823 -0.042627823 -0.042627823
000240 83 9a 2e bd 83 9a 2e bd 83 9a 2e bd 83 9a 2e bd
       -0.042627823 -0.042627823 -0.042627823 -0.042627823
000250 83 9a 2e bd 83 9a 2e bd 83 9a 2e bd 83 9a 2e bd
       -0.042627823 -0.042627823 -0.042627823 -0.042627823
000260 83 9a 2e bd 83 9a 2e bd 83 9a 2e bd 83 9a 2e bd
       -0.042627823 -0.042627823 -0.042627823 -0.042627823
000270 83 9a 2e bd 83 9a 2e bd 83 9a 2e bd 83 9a 2e bd
       -0.042627823 -0.042627823 -0.042627823 -0.042627823
000280 83 9a 2e bd 83 9a 2e bd 83 9a 2e bd 83 9a 2e bd
       -0.042627823 -0.042627823 -0.042627823 -0.042627823
000290 83 9a 2e bd 83 9a 2e bd 83 9a 2e bd 83 9a 2e bd
       -0.042627823 -0.042627823 -0.042627823 -0.042627823
0002a0 83 9a 2e bd 83 9a 2e bd 83 9a 2e bd 83 9a 2e bd
       -0.042627823 -0.042627823 -0.042627823 -0.042627823
0002b0 83 9a 2e bd 83 9a 2e bd 83 9a 2e bd 83 9a 2e bd
       -0.042627823 -0.042627823 -0.042627823 -0.042627823
0002c0 83 9a 2e bd 83 9a 2e bd 83 9a 2e bd 83 9a 2e bd
       -0.042627823 -0.042627823 -0.042627823 -0.042627823
0002d0 83 9a 2e bd 83 9a 2e bd 83 9a 2e bd 83 9a 2e bd
       -0.042627823 -0.042627823 -0.042627823 -0.042627823
0002e0 83 9a 2e bd 83 9a 2e bd 83 9a 2e bd 83 9a 2e bd
       -0.042627823 -0.042627823 -0.042627823 -0.042627823
0002f0 83 9a 2e bd 83 9a 2e bd 83 9a 2e bd 83 9a 2e bd
       -0.042627823 -0.042627823 -0.042627823 -0.042627823
000300 83 9a 2e bd 83 9a 2e bd 83 9a 2e bd 83 9a 2e bd
       -0.042627823 -0.042627823 -0.042627823 -0.042627823
000310 83 9a 2e bd 83 9a 2e bd 83 9a 2e bd 83 9a 2e bd
       -0.042627823 -0.042627823 -0.042627823 -0.042627823
000320 83 9a 2e bd 83 9a 2e bd 83 9a 2e bd 83 9a 2e bd
       -0.042627823 -0.042627823 -0.042627823 -0.042627823
000330 83 9a 2e bd 83 9a 2e bd 83 9a 2e bd 83 9a 2e bd
       -0.042627823 -0.042627823 -0.042627823 -0.042627823
000340 83 9a 2e bd 83 9a 2e bd 83 9a 2e bd 83 9a 2e bd
       -0.042627823 -0.042627823 -0.042627823 -0.042627823
000350 21 d1 b3 bc 21 d1 b3 bc 21 d1 b3 bc 21 d1 b3 bc
       -0.021950306 -0.021950306 -0.021950306 -0.021950306
000360 21 d1 b3 bc 21 d1 b3 bc 21 d1 b3 bc 21 d1 b3 bc
       -0.021950306 -0.021950306 -0.021950306 -0.021950306
000370 21 d1 b3 bc 21 d1 b3 bc 21 d1 b3 bc 21 d1 b3 bc
       -0.021950306 -0.021950306 -0.021950306 -0.021950306
000380 21 d1 b3 bc 21 d1 b3 bc 21 d1 b3 bc 21 d1 b3 bc
       -0.021950306 -0.021950306 -0.021950306 -0.021950306
000390 21 d1 b3 bc 21 d1 b3 bc 21 d1 b3 bc 21 d1 b3 bc
       -0.021950306 -0.021950306 -0.021950306 -0.021950306
0003a0 21 d1 b3 bc 21 d1 b3 bc 21 d1 b3 bc 21 d1 b3 bc
       -0.021950306 -0.021950306 -0.021950306 -0.021950306
0003b0 21 d1 b3 bc 21 d1 b3 bc aa 0f af bc 12 a2 81 b9
       -0.021950306 -0.021950306 -0.021369774 -0.0002472555
0003c0 12 a2 81 b9 12 a2 81 b9 12 a2 81 b9 6e fa 66 3c
       -0.0002472555 -0.0002472555 -0.0002472555 0.014097793
0003d0 28 c6 1e 3d 28 c6 1e 3d 28 c6 1e 3d 28 c6 1e 3d
       0.038763195 0.038763195 0.038763195 0.038763195
0003e0 28 c6 1e 3d 28 c6 1e 3d 28 c6 1e 3d 55 34 2a 3d
       0.038763195 0.038763195 0.038763195 0.041553814
0003f0 55 34 2a 3d 55 34 2a 3d d8 f9 c1 3e 28 b2 cd 3f
       0.041553814 0.041553814 0.37885928 1.6069994

bin_index_range_0 f4 [256]
000000 00 00 00 00 00 00 80 3f 00 00 00 40 00 00 40 40
       0.0 1.0 2.0 3.0
000010 00 00 80 40 00 00 a0 40 00 00 c0 40 00 00 e0 40
       4.0 5.0 6.0 7.0
000020 00 00 00 41 00 00 10 41 00 00 20 41 00 00 30 41
       8.0 9.0 10.0 11.0
000030 00 00 40 41 00 00 50 41 00 00 60 41 00 00 70 41
       12.0 13.0 14.0 15.0
000040 00 00 80 41 00 00 88 41 00 00 90 41 00 00 98 41
       16.0 17.0 18.0 19.0
000050 00 00 a0 41 00 00 a8 41 00 00 b0 41 00 00 b8 41
       20.0 21.0 22.0 23.0
000060 00 00 c0 41 00 00 c8 41 00 00 d0 41 00 00 d8 41
       24.0 25.0 26.0 27.0
000070 00 00 e0 41 00 00 e8 41 00 00 f0 41 00 00 f8 41
       28.0 29.0 30.0 31.0
000080 00 00 00 42 00 00 04 42 00 00 08 42 00 00 0c 42
       32.0 33.0 34.0 35.0
000090 00 00 10 42 00 00 14 42 00 00 18 42 00 00 1c 42
       36.0 37.0 38.0 39.0
0000a0 00 00 20 42 00 00 24 42 00 00 28 42 00 00 2c 42
       40.0 41.0 42.0 43.0
0000b0 00 00 30 42 00 00 34 42 00 00 38 42 00 00 3c 42
       44.0 45.0 46.0 47.0
0000c0 00 00 40 42 00 00 44 42 00 00 48 42 00 00 4c 42
       48.0 49.0 50.0 51.0
0000d0 00 00 50 42 00 00 54 42 00 00 58 42 00 00 5c 42
       52.0 53.0 54.0 55.0
0000e0 00 00 60 42 00 00 64 42 00 00 68 42 00 00 6c 42
       56.0 57.0 58.0 59.0
0000f0 00 00 70 42 00 00 74 42 00 00 78 42 00 00 7c 42
       60.0 61.0 62.0 63.0
000100 00 00 80 42 00 00 82 42 00 00 84 42 00 00 86 42
       64.0 65.0 66.0 67.0
000110 00 00 88 42 00 00 8a 42 00 00 8c 42 00 00 8e 42
       68.0 69.0 70.0 71.0
000120 00 00 90 42 00 00 92 42 00 00 94 42 00 00 96 42
       72.0 73.0 74.0 75.0
000130 00 00 98 42 00 00 9a 42 00 00 9c 42 00 00 9e 42
       76.0 77.0 78.0 79.0
000140 00 00 a0 42 00 00 a2 42 00 00 a4 42 00 00 a6 42
       80.0 81.0 82.0 83.0
000150 00 00 a8 42 00 00 aa 42 00 00 ac 42 00 00 ae 42
       84.0 85.0 86.0 87.0
000160 00 00 b0 42 00 00 b2 42 00 00 b4 42 00 00 b6 42
       88.0 89.0 90.0 91.0
000170 00 00 b8 42 00 00 ba 42 00 00 bc 42 00 00 be 42
       92.0 93.0 94.0 95.0
000180 00 00 c0 42 00 00 c2 42 00 00 c4 42 00 00 c6 42
       96.0 97.0 98.0 99.0
000190 00 00 c8 42 00 00 ca 42 00 00 cc 42 00 00 ce 42
       100.0 101.0 102.0 103.0
0001a0 00 00 d0 42 00 00 d2 42 00 00 d4 42 00 00 d6 42
       104.0 105.0 106.0 107.0
0001b0 00 00 d8 42 00 00 da 42 00 00 dc 42 00 00 de 42
       108.0 109.0 110.0 111.0
0001c0 00 00 e0 42 00 00 e2 42 00 00 e4 42 00 00 e6 42
       112.0 113.0 114.0 115.0
0001d0 00 00 e8 42 00 00 ea 42 00 00 ec 42 00 00 ee 42
       116.0 117.0 118.0 119.0
0001e0 00 00 f0 42 00 00 f2 42 00 00 f4 42 00 00 f6 42
       120.0 121.0 122.0 123.0
0001f0 00 00 f8 42 00 00 fa 42 00 00 fc 42 00 00 fe 42
       124.0 125.0 126.0 127.0
000200 00 00 00 43 00 00 01 43 00 00 02 43 00 00 03 43
       128.0 129.0 130.0 131.0
000210 00 00 04 43 00 00 05 43 00 00 06 43 00 00 07 43
       132.0 133.0 134.0 135.0
000220 00 00 08 43 00 00 09 43 00 00 0a 43 00 00 0b 43
       136.0 137.0 138.0 139.0
000230 00 00 0c 43 00 00 0d 43 00 00 0e 43 00 00 0f 43
       140.0 141.0 142.0 143.0
000240 00 00 10 43 00 00 11 43 00 00 12 43 00 00 13 43
       144.0 145.0 146.0 147.0
000250 00 00 14 43 00 00 15 43 00 00 16 43 00 00 17 43
       148.0 149.0 150.0 151.0
000260 00 00 18 43 00 00 19 43 00 00 1a 43 00 00 1b 43
       152.0 153.0 154.0 155.0
000270 00 00 1c 43 00 00 1d 43 00 00 1e 43 00 00 1f 43
       156.0 157.0 158.0 159.0
000280 00 00 20 43 00 00 21 43 00 00 22 43 00 00 23 43
       160.0 161.0 162.0 163.0
000290 00 00 24 43 00 00 25 43 00 00 26 43 00 00 27 43
       164.0 165.0 166.0 167.0
0002a0 00 00 28 43 00 00 29 43 00 00 2a 43 00 00 2b 43
       168.0 169.0 170.0 171.0
0002b0 00 00 2c 43 00 00 2d 43 00 00 2e 43 00 00 2f 43
       172.0 173.0 174.0 175.0
0002c0 00 00 30 43 00 00 31 43 00 00 32 43 00 00 33 43
       176.0 177.0 178.0 179.0
0002d0 00 00 34 43 00 00 35 43 00 00 36 43 00 00 37 43
       180.0 181.0 182.0 183.0
0002e0 00 00 38 43 00 00 39 43 00 00 3a 43 00 00 3b 43
       184.0 185.0 186.0 187.0
0002f0 00 00 3c 43 00 00 3d 43 00 00 3e 43 00 00 3f 43
       188.0 189.0 190.0 191.0
000300 00 00 40 43 00 00 41 43 00 00 42 43 00 00 43 43
       192.0 193.0 194.0 195.0
000310 00 00 44 43 00 00 45 43 00 00 46 43 00 00 47 43
       196.0 197.0 198.0 199.0
000320 00 00 48 43 00 00 49 43 00 00 4a 43 00 00 4b 43
       200.0 201.0 202.0 203.0
000330 00 00 4c 43 00 00 4d 43 00 00 4e 43 00 00 4f 43
       204.0 205.0 206.0 207.0
000340 00 00 50 43 00 00 51 43 00 00 52 43 00 00 53 43
       208.0 209.0 210.0 211.0
000350 00 00 54 43 00 00 55 43 00 00 56 43 00 00 57 43
       212.0 213.0 214.0 215.0
000360 00 00 58 43 00 00 59 43 00 00 5a 43 00 00 5b 43
       216.0 217.0 218.0 219.0
000370 00 00 5c 43 00 00 5d 43 00 00 5e 43 00 00 5f 43
       220.0 221.0 222.0 223.0
000380 00 00 60 43 00 00 61 43 00 00 62 43 00 00 63 43
       224.0 225.0 226.0 227.0
000390 00 00 64 43 00 00 65 43 00 00 66 43 00 00 67 43
       228.0 229.0 230.0 231.0
0003a0 00 00 68 43 00 00 69 43 00 00 6a 43 00 00 6b 43
       232.0 233.0 234.0 235.0
0003b0 00 00 6c 43 00 00 6d 43 00 00 6e 43 00 00 6f 43
       236.0 237.0 238.0 239.0
0003c0 00 00 70 43 00 00 71 43 00 00 72 43 00 00 73 43
       240.0 241.0 242.0 243.0
0003d0 00 00 74 43 00 00 75 43 00 00 76 43 00 00 77 43
       244.0 245.0 246.0 247.0
0003e0 00 00 78 43 00 00 79 43 00 00 7a 43 00 00 7b 43
       248.0 249.0 250.0 251.0
0003f0 00 00 7c 43 00 00 7d 43 00 00 7e 43 00 00 7f 43
       252.0 253.0 254.0 255.0

bin_scores_1 f4 [256, 1]
000000 00 00 00 00 03 c4 90 3f ab 35 82 3f b8 0d 8d 3f
       0.0 1.1309818 1.0172628 1.1019812
000010 45 44 91 3f 00 aa 5c 3f be 94 55 3f be ac 49 3f
       1.1348959 0.861969 0.8343009 0.7877921
000020 e5 76 31 3f e5 76 31 3f e5 76 31 3f c0 4f 26 3f
       0.69322044 0.69322044 0.69322044 0.6496544
000030 c0 4f 26 3f c0 4f 26 3f c0 4f 26 3f d7 d3 04 3f
       0.6496544 0.6496544 0.6496544 0.5188574
000040 f0 86 04 3f f0 86 04 3f f7 b5 e2 3e fb 9f e1 3e
       0.517684 0.517684 0.44279453 0.44067368
000050 fb 9f e1 3e 60 99 b0 3e 60 99 b0 3e 60 99 b0 3e
       0.44067368 0.34492016 0.34492016 0.34492016
000060 60 99 b0 3e 03 89 ad 3e 03 89 ad 3e cc 93 9f 3e
       0.34492016 0.33893594 0.33893594 0.31167448
000070 cc 93 9f 3e 72 27 71 3e 72 27 71 3e 72 27 71 3e
       0.31167448 0.23550203 0.23550203 0.23550203
000080 72 27 71 3e 72 27 71 3e 72 27 71 3e 72 27 71 3e
       0.23550203 0.23550203 0.23550203 0.23550203
000090 72 27 71 3e 72 27 71 3e 72 27 71 3e 72 27 71 3e
       0.23550203 0.23550203 0.23550203 0.23550203
0000a0 72 27 71 3e 72 27 71 3e 72 27 71 3e 72 27 71 3e
       0.23550203 0.23550203 0.23550203 0.23550203
0000b0 18 48 cb bb 18 48 cb bb 18 48 cb bb 18 48 cb bb
       -0.0062036626 -0.0062036626 -0.0062036626 -0.0062036626
0000c0 18 48 cb bb 18 48 cb bb 18 48 cb bb 0f d1 96 bd
       -0.0062036626 -0.0062036626 -0.0062036626 -0.073640935
0000d0 0f d1 96 bd 0f d1 96 bd d8 69 99 bd d8 69 99 bd
       -0.073640935 -0.073640935 -0.07490891 -0.07490891
0000e0 d8 69 99 bd ba 00 9e bd ba 00 9e bd aa b3 a4 bd
       -0.07490891 -0.07714982 -0.07714982 -0.08042081
0000f0 aa b3 a4 bd aa b3 a4 bd aa b3 a4 bd aa b3 a4 bd
       -0.08042081 -0.08042081 -0.08042081 -0.08042081
000100 aa b3 a4 bd aa b3 a4 bd aa b3 a4 bd aa b3 a4 bd
       -0.08042081 -0.08042081 -0.08042081 -0.08042081
000110 aa b3 a4 bd aa b3 a4 bd aa b3 a4 bd aa b3 a4 bd
       -0.08042081 -0.08042081 -0.08042081 -0.08042081
000120 aa b3 a4 bd aa b3 a4 bd aa b3 a4 bd aa b3 a4 bd
       -0.08042081 -0.08042081 -0.08042081 -0.08042081
000130 aa b3 a4 bd aa b3 a4 bd aa b3 a4 bd aa b3 a4 bd
       -0.08042081 -0.08042081 -0.08042081 -0.08042081
000140 aa b3 a4 bd aa b3 a4 bd aa b3 a4 bd aa b3 a4 bd
       -0.08042081 -0.08042081 -0.08042081 -0.08042081
000150 aa b3 a4 bd aa b3 a4 bd aa b3 a4 bd aa b3 a4 bd
       -0.08042081 -0.08042081 -0.08042081 -0.08042081
000160 aa b3 a4 bd aa b3 a4 bd aa b3 a4 bd aa b3 a4 bd
       -0.08042081 -0.08042081 -0.08042081 -0.08042081
000170 aa b3 a4 bd aa b3 a4 bd aa b3 a4 bd aa b3 a4 bd
       -0.08042081 -0.08042081 -0.08042081 -0.08042081
000180 aa b3 a4 bd aa b3 a4 bd aa b3 a4 bd aa b3 a4 bd
       -0.08042081 -0.08042081 -0.08042081 -0.08042081
000190 aa b3 a4 bd aa b3 a4 bd aa b3 a4 bd aa b3 a4 bd
       -0.08042081 -0.08042081 -0.08042081 -0.08042081
0001a0 aa b3 a4 bd aa b3 a4 bd aa b3 a4 bd aa b3 a4 bd
       -0.08042081 -0.08042081 -0.08042081 -0.08042081
0001b0 aa b3 a4 bd aa b3 a4 bd aa b3 a4 bd aa b3 a4 bd
       -0.08042081 -0.08042081 -0.08042081 -0.08042081
0001c0 aa b3 a4 bd aa b3 a4 bd aa b3 a4 bd aa b3 a4 bd
       -0.08042081 -0.08042081 -0.08042081 -0.08042081
0001d0 aa b3 a4 bd aa b3 a4 bd aa b3 a4 bd aa b3 a4 bd
       -0.08042081 -0.08042081 -0.08042081 -0.08042081
0001e0 aa b3 a4 bd aa b3 a4 bd aa b3 a4 bd aa b3 a4 bd
       -0.08042081 -0.08042081 -0.08042081 -0.08042081
0001f0 aa b3 a4 bd aa b3 a4 bd aa b3 a4 bd aa b3 a4 bd
       -0.08042081 -0.08042081 -0.08042081 -0.08042081
000200 aa b3 a4 bd aa b3 a4 bd aa b3 a4 bd aa b3 a4 bd
       -0.08042081 -0.08042081 -0.08042081 -0.08042081
000210 aa b3 a4 bd aa b3 a4 bd aa b3 a4 bd aa b3 a4 bd
       -0.08042081 -0.08042081 -0.08042081 -0.08042081
000220 aa b3 a4 bd aa b3 a4 bd aa b3 a4 bd aa b3 a4 bd
       -0.08042081 -0.08042081 -0.08042081 -0.08042081
000230 aa b3 a4 bd aa b3 a4 bd aa b3 a4 bd aa b3 a4 bd
       -0.08042081 -0.08042081 -0.08042081 -0.08042081
000240 aa b3 a4 bd aa b3 a4 bd aa b3 a4 bd aa b3 a4 bd
       -0.08042081 -0.08042081 -0.08042081 -0.08042081
000250 aa b3 a4 bd aa b3 a4 bd aa b3 a4 bd aa b3 a4 bd
       -0.08042081 -0.08042081 -0.08042081 -0.08042081
000260 aa b3 a4 bd aa b3 a4 bd aa b3 a4 bd aa b3 a4 bd
       -0.08042081 -0.08042081 -0.08042081 -0.08042081
000270 aa b3 a4 bd aa b3 a4 bd aa b3 a4 bd aa b3 a4 bd
       -0.08042081 -0.08042081 -0.08042081 -0.08042081
000280 aa b3 a4 bd aa b3 a4 bd aa b3 a4 bd aa b3 a4 bd
       -0.08042081 -0.08042081 -0.08042081 -0.08042081
000290 aa b3 a4 bd aa b3 a4 bd aa b3 a4 bd aa b3 a4 bd
       -0.08042081 -0.08042081 -0.08042081 -0.08042081
0002a0 aa b3 a4 bd aa b3 a4 bd aa b3 a4 bd aa b3 a4 bd
       -0.08042081 -0.08042081 -0.08042081 -0.08042081
0002b0 aa b3 a4 bd aa b3 a4 bd aa b3 a4 bd aa b3 a4 bd
       -0.08042081 -0.08042081 -0.08042081 -0.08042081
0002c0 aa b3 a4 bd aa b3 a4 bd aa b3 a4 bd aa b3 a4 bd
       -0.08042081 -0.08042081 -0.08042081 -0.08042081
0002d0 aa b3 a4 bd aa b3 a4 bd aa b3 a4 bd aa b3 a4 bd
       -0.08042081 -0.08042081 -0.08042081 -0.08042081
0002e0 aa b3 a4 bd aa b3 a4 bd aa b3 a4 bd aa b3 a4 bd
       -0.08042081 -0.08042081 -0.08042081 -0.08042081
0002f0 aa b3 a4 bd aa b3 a4 bd aa b3 a4 bd aa b3 a4 bd
       -0.08042081 -0.08042081 -0.08042081 -0.08042081
000300 aa b3 a4 bd aa b3 a4 bd aa b3 a4 bd aa b3 a4 bd
       -0.08042081 -0.08042081 -0.08042081 -0.08042081
000310 aa b3 a4 bd aa b3 a4 bd aa b3 a4 bd aa b3 a4 bd
       -0.08042081 -0.08042081 -0.08042081 -0.08042081
000320 aa b3 a4 bd aa b3 a4 bd aa b3 a4 bd aa b3 a4 bd
       -0.08042081 -0.08042081 -0.08042081 -0.08042081
000330 aa b3 a4 bd aa b3 a4 bd aa b3 a4 bd aa b3 a4 bd
       -0.08042081 -0.08042081 -0.08042081 -0.08042081
000340 aa b3 a4 bd aa b3 a4 bd aa b3 a4 bd aa b3 a4 bd
       -0.08042081 -0.08042081 -0.08042081 -0.08042081
000350 aa b3 a4 bd aa b3 a4 bd aa b3 a4 bd aa b3 a4 bd
       -0.08042081 -0.08042081 -0.08042081 -0.08042081
000360 aa b3 a4 bd aa b3 a4 bd aa b3 a4 bd aa b3 a4 bd
       -0.08042081 -0.08042081 -0.08042081 -0.08042081
000370 aa b3 a4 bd aa b3 a4 bd aa b3 a4 bd aa b3 a4 bd
       -0.08042081 -0.08042081 -0.08042081 -0.08042081
000380 aa b3 a4 bd aa b3 a4 bd aa b3 a4 bd ac 91 6b 3d
       -0.08042081 -0.08042081 -0.08042081 0.05751197
000390 ac 91 6b 3d ac 91 6b 3d ac 91 6b 3d ac 91 6b 3d
       0.05751197 0.05751197 0.05751197 0.05751197
0003a0 ac 91 6b 3d f4 c7 f8 3d f4 c7 f8 3d f4 c7 f8 3d
       0.05751197 0.12147513 0.12147513 0.12147513
0003b0 f4 c7 f8 3d f4 c7 f8 3d 7a 9a a2 3e d8 1d b6 3e
       0.12147513 0.12147513 0.3175848 0.35569644
0003c0 d8 1d b6 3e f8 d9 b6 3e a6 b4 c5 3e a6 b4 c5 3e
       0.35569644 0.35713172 0.38614386 0.38614386
0003d0 a6 b4 c5 3e ef 4a 10 3f e4 ae 10 3f e4 ae 10 3f
       0.38614386 0.5636434 0.5651686 0.5651686
0003e0 e4 ae 10 3f e4 ae 10 3f e4 ae 10 3f e4 ae 10 3f
       0.5651686 0.5651686 0.5651686 0.5651686
0003f0 e4 ae 10 3f e4 ae 10 3f e4 ae 10 3f e4 ae 10 3f
       0.5651686 0.5651686 0.5651686 0.5651686

bin_index_range_1 f4 [256]
000000 00 00 00 00 00 00 80 3f 00 00 00 40 00 00 40 40
       0.0 1.0 2.0 3.0
000010 00 00 80 40 00 00 a0 40 00 00 c0 40 00 00 e0 40
       4.0 5.0 6.0 7.0
000020 00 00 00 41 00 00 10 41 00 00 20 41 00 00 30 41
       8.0 9.0 10.0 11.0
000030 00 00 40 41 00 00 50 41 00 00 60 41 00 00 70 41
       12.0 13.0 14.0 15.0
000040 00 00 80 41 00 00 88 41 00 00 90 41 00 00 98 41
       16.0 17.0 18.0 19.0
000050 00 00 a0 41 00 00 a8 41 00 00 b0 41 00 00 b8 41
       20.0 21.0 22.0 23.0
000060 00 00 c0 41 00 00 c8 41 00 00 d0 41 00 00 d8 41
       24.0 25.0 26.0 27.0
000070 00 00 e0 41 00 00 e8 41 00 00 f0 41 00 00 f8 41
       28.0 29.0 30.0 31.0
000080 00 00 00 42 00 00 04 42 00 00 08 42 00 00 0c 42
       32.0 33.0 34.0 35.0
000090 00 00 10 42 00 00 14 42 00 00 18 42 00 00 1c 42
       36.0 37.0 38.0 39.0
0000a0 00 00 20 42 00 00 24 42 00 00 28 42 00 00 2c 42
       40.0 41.0 42.0 43.0
0000b0 00 00 30 42 00 00 34 42 00 00 38 42 00 00 3c 42
       44.0 45.0 46.0 47.0
0000c0 00 00 40 42 00 00 44 42 00 00 48 42 00 00 4c 42
       48.0 49.0 50.0 51.0
0000d0 00 00 50 42 00 00 54 42 00 00 58 42 00 00 5c 42
       52.0 53.0 54.0 55.0
0000e0 00 00 60 42 00 00 64 42 00 00 68 42 00 00 6c 42
       56.0 57.0 58.0 59.0
0000f0 00 00 70 42 00 00 74 42 00 00 78 42 00 00 7c 42
       60.0 61.0 62.0 63.0
000100 00 00 80 42 00 00 82 42 00 00 84 42 00 00 86 42
       64.0 65.0 66.0 67.0
000110 00 00 88 42 00 00 8a 42 00 00 8c 42 00 00 8e 42
       68.0 69.0 70.0 71.0
000120 00 00 90 42 00 00 92 42 00 00 94 42 00 00 96 42
       72.0 73.0 74.0 75.0
000130 00 00 98 42 00 00 9a 42 00 00 9c 42 00 00 9e 42
       76.0 77.0 78.0 79.0
000140 00 00 a0 42 00 00 a2 42 00 00 a4 42 00 00 a6 42
       80.0 81.0 82.0 83.0
000150 00 00 a8 42 00 00 aa 42 00 00 ac 42 00 00 ae 42
       84.0 85.0 86.0 87.0
000160 00 00 b0 42 00 00 b2 42 00 00 b4 42 00 00 b6 42
       88.0 89.0 90.0 91.0
000170 00 00 b8 42 00 00 ba 42 00 00 bc 42 00 00 be 42
       92.0 93.0 94.0 95.0
000180 00 00 c0 42 00 00 c2 42 00 00 c4 42 00 00 c6 42
       96.0 97.0 98.0 99.0
000190 00 00 c8 42 00 00 ca 42 00 00 cc 42 00 00 ce 42
       100.0 101.0 102.0 103.0
0001a0 00 00 d0 42 00 00 d2 42 00 00 d4 42 00 00 d6 42
       104.0 105.0 106.0 107.0
0001b0 00 00 d8 42 00 00 da 42 00 00 dc 42 00 00 de 42
       108.0 109.0 110.0 111.0
0001c0 00 00 e0 42 00 00 e2 42 00 00 e4 42 00 00 e6 42
       112.0 113.0 114.0 115.0
0001d0 00 00 e8 42 00 00 ea 42 00 00 ec 42 00 00 ee 42
       116.0 117.0 118.0 119.0
0001e0 00 00 f0 42 00 00 f2 42 00 00 f4 42 00 00 f6 42
       120.0 121.0 122.0 123.0
0001f0 00 00 f8 42 00 00 fa 42 00 00 fc 42 00 00 fe 42
       124.0 125.0 126.0 127.0
000200 00 00 00 43 00 00 01 43 00 00 02 43 00 00 03 43
       128.0 129.0 130.0 131.0
000210 00 00 04 43 00 00 05 43 00 00 06 43 00 00 07 43
       132.0 133.0 134.0 135.0
000220 00 00 08 43 00 00 09 43 00 00 0a 43 00 00 0b 43
       136.0 137.0 138.0 139.0
000230 00 00 0c 43 00 00 0d 43 00 00 0e 43 00 00 0f 43
       140.0 141.0 142.0 143.0
000240 00 00 10 43 00 00 11 43 00 00 12 43 00 00 13 43
       144.0 145.0 146.0 147.0
000250 00 00 14 43 00 00 15 43 00 00 16 43 00 00 17 43
       148.0 149.0 150.0 151.0
000260 00 00 18 43 00 00 19 43 00 00 1a 43 00 00 1b 43
       152.0 153.0 154.0 155.0
000270 00 00 1c 43 00 00 1d 43 00 00 1e 43 00 00 1f 43
       156.0 157.0 158.0 159.0
000280 00 00 20 43 00 00 21 43 00 00 22 43 00 00 23 43
       160.0 161.0 162.0 163.0
000290 00 00 24 43 00 00 25 43 00 00 26 43 00 00 27 43
       164.0 165.0 166.0 167.0
0002a0 00 00 28 43 00 00 29 43 00 00 2a 43 00 00 2b 43
       168.0 169.0 170.0 171.0
0002b0 00 00 2c 43 00 00 2d 43 00 00 2e 43 00 00 2f 43
       172.0 173.0 174.0 175.0
0002c0 00 00 30 43 00 00 31 43 00 00 32 43 00 00 33 43
       176.0 177.0 178.0 179.0
0002d0 00 00 34 43 00 00 35 43 00 00 36 43 00 00 37 43
       180.0 181.0 182.0 183.0
0002e0 00 00 38 43 00 00 39 43 00 00 3a 43 00 00 3b 43
       184.0 185.0 186.0 187.0
0002f0 00 00 3c 43 00 00 3d 43 00 00 3e 43 00 00 3f 43
       188.0 189.0 190.0 191.0
000300 00 00 40 43 00 00 41 43 00 00 42 43 00 00 43 43
       192.0 193.0 194.0 195.0
000310 00 00 44 43 00 00 45 43 00 00 46 43 00 00 47 43
       196.0 197.0 198.0 199.0
000320 00 00 48 43 00 00 49 43 00 00 4a 43 00 00 4b 43
       200.0 201.0 202.0 203.0
000330 00 00 4c 43 00 00 4d 43 00 00 4e 43 00 00 4f 43
       204.0 205.0 206.0 207.0
000340 00 00 50 43 00 00 51 43 00 00 52 43 00 00 53 43
       208.0 209.0 210.0 211.0
000350 00 00 54 43 00 00 55 43 00 00 56 43 00 00 57 43
       212.0 213.0 214.0 215.0
000360 00 00 58 43 00 00 59 43 00 00 5a 43 00 00 5b 43
       216.0 217.0 218.0 219.0
000370 00 00 5c 43 00 00 5d 43 00 00 5e 43 00 00 5f 43
       220.0 221.0 222.0 223.0
000380 00 00 60 43 00 00 61 43 00 00 62 43 00 00 63 43
       224.0 225.0 226.0 227.0
000390 00 00 64 43 00 00 65 43 00 00 66 43 00 00 67 43
       228.0 229.0 230.0 231.0
0003a0 00 00 68 43 00 00 69 43 00 00 6a 43 00 00 6b 43
       232.0 233.0 234.0 235.0
0003b0 00 00 6c 43 00 00 6d 43 00 00 6e 43 00 00 6f 43
       236.0 237.0 238.0 239.0
0003c0 00 00 70 43 00 00 71 43 00 00 72 43 00 00 73 43
       240.0 241.0 242.0 243.0
0003d0 00 00 74 43 00 00 75 43 00 00 76 43 00 00 77 43
       244.0 245.0 246.0 247.0
0003e0 00 00 78 43 00 00 79 43 00 00 7a 43 00 00 7b 43
       248.0 249.0 250.0 251.0
0003f0 00 00 7c 43 00 00 7d 43 00 00 7e 43 00 00 7f 43
       252.0 253.0 254.0 255.0

bin_scores_2 f4 [256, 1]
000000 00 00 00 00 71 8b c3 3f 75 66 88 3f 93 88 82 3f
       0.0 1.5276929 1.0656267 1.0197929
000010 27 41 6d 3f 27 41 6d 3f 02 c5 6b 3f 02 c5 6b 3f
       0.9267754 0.9267754 0.92097485 0.92097485
000020 a1 85 6a 3f 6f 23 66 3f 6f 23 66 3f 82 5f 49 3f
       0.9161015 0.8989782 0.8989782 0.7866136
000030 ad e0 40 3f ad e0 40 3f 86 0a 1a 3f f2 2b 1a 3f
       0.7534283 0.7534283 0.6017231 0.60223305
000040 0b c0 a5 3e 0b c0 a5 3e 0b c0 a5 3e ad d7 a1 3e
       0.3237308 0.3237308 0.3237308 0.3160986
000050 ad d7 a1 3e ad d7 a1 3e 24 68 a4 bc d9 1c c2 bc
       0.3160986 0.3160986 -0.02006919 -0.023695396
000060 d9 1c c2 bc 1a b4 cd bc b6 34 52 bd b6 34 52 bd
       -0.023695396 -0.025110293 -0.0513198 -0.0513198
000070 00 bb 59 bd 00 bb 59 bd 00 bb 59 bd 00 bb 59 bd
       -0.053156853 -0.053156853 -0.053156853 -0.053156853
000080 00 bb 59 bd 00 bb 59 bd 00 bb 59 bd 00 bb 59 bd
       -0.053156853 -0.053156853 -0.053156853 -0.053156853
000090 00 bb 59 bd 00 bb 59 bd 00 bb 59 bd 00 bb 59 bd
       -0.053156853 -0.053156853 -0.053156853 -0.053156853
0000a0 00 bb 59 bd 00 bb 59 bd 00 bb 59 bd 00 bb 59 bd
       -0.053156853 -0.053156853 -0.053156853 -0.053156853
0000b0 00 bb 59 bd 00 bb 59 bd 00 bb 59 bd 00 bb 59 bd
       -0.053156853 -0.053156853 -0.053156853 -0.053156853
0000c0 00 bb 59 bd 00 bb 59 bd 00 bb 59 bd 00 bb 59 bd
       -0.053156853 -0.053156853 -0.053156853 -0.053156853
0000d0 00 bb 59 bd 00 bb 59 bd 00 bb 59 bd 00 bb 59 bd
       -0.053156853 -0.053156853 -0.053156853 -0.053156853
0000e0 00 bb 59 bd 00 bb 59 bd 00 bb 59 bd 00 bb 59 bd
       -0.053156853 -0.053156853 -0.053156853 -0.053156853
0000f0 00 bb 59 bd 00 bb 59 bd 00 bb 59 bd 00 bb 59 bd
       -0.053156853 -0.053156853 -0.053156853 -0.053156853
000100 00 bb 59 bd 00 bb 59 bd 00 bb 59 bd 00 bb 59 bd
       -0.053156853 -0.053156853 -0.053156853 -0.053156853
000110 00 bb 59 bd 00 bb 59 bd 00 bb 59 bd 00 bb 59 bd
       -0.053156853 -0.053156853 -0.053156853 -0.053156853
000120 00 bb 59 bd 00 bb 59 bd 00 bb 59 bd 00 bb 59 bd
       -0.053156853 -0.053156853 -0.053156853 -0.053156853
000130 00 bb 59 bd 00 bb 59 bd 00 bb 59 bd 00 bb 59 bd
       -0.053156853 -0.053156853 -0.053156853 -0.053156853
000140 00 bb 59 bd 00 bb 59 bd 00 bb 59 bd 00 bb 59 bd
       -0.053156853 -0.053156853 -0.053156853 -0.053156853
000150 00 bb 59 bd 00 bb 59 bd 00 bb 59 bd 00 bb 59 bd
       -0.053156853 -0.053156853 -0.053156853 -0.053156853
000160 00 bb 59 bd 00 bb 59 bd 00 bb 59 bd 00 bb 59 bd
       -0.053156853 -0.053156853 -0.053156853 -0.053156853
000170 00 bb 59 bd 00 bb 59 bd 00 bb 59 bd 00 bb 59 bd
       -0.053156853 -0.053156853 -0.053156853 -0.053156853
000180 00 bb 59 bd 00 bb 59 bd 00 bb 59 bd 00 bb 59 bd
       -0.053156853 -0.053156853 -0.053156853 -0.053156853
000190 00 bb 59 bd 00 bb 59 bd 00 bb 59 bd 00 bb 59 bd
       -0.053156853 -0.053156853 -0.053156853 -0.053156853
0001a0 00 bb 59 bd 00 bb 59 bd 00 bb 59 bd 00 bb 59 bd
       -0.053156853 -0.053156853 -0.053156853 -0.053156853
0001b0 00 bb 59 bd 00 bb 59 bd 00 bb 59 bd 00 bb 59 bd
       -0.053156853 -0.053156853 -0.053156853 -0.053156853
0001c0 00 bb 59 bd 00 bb 59 bd 00 bb 59 bd 00 bb 59 bd
       -0.053156853 -0.053156853 -0.053156853 -0.053156853
0001d0 00 bb 59 bd 00 bb 59 bd 00 bb 59 bd 00 bb 59 bd
       -0.053156853 -0.053156853 -0.053156853 -0.053156853
0001e0 00 bb 59 bd 00 bb 59 bd 00 bb 59 bd f3 22 51 bd
       -0.053156853 -0.053156853 -0.053156853 -0.05105872
0001f0 f3 22 51 bd f3 22 51 bd f3 22 51 bd f3 22 51 bd
       -0.05105872 -0.05105872 -0.05105872 -0.05105872
000200 f3 22 51 bd f3 22 51 bd f3 22 51 bd ce 8a 76 bd
       -0.05105872 -0.05105872 -0.05105872 -0.06019097
000210 cb 77 87 bd cb 77 87 bd cb 77 87 bd cb 77 87 bd
       -0.066146456 -0.066146456 -0.066146456 -0.066146456
000220 cb 77 87 bd cb 77 87 bd cb 77 87 bd be bb 91 bd
       -0.066146456 -0.066146456 -0.066146456 -0.07115887
000230 be bb 91 bd be bb 91 bd be bb 91 bd be bb 91 bd
       -0.07115887 -0.07115887 -0.07115887 -0.07115887
000240 be bb 91 bd be bb 91 bd be bb 91 bd be bb 91 bd
       -0.07115887 -0.07115887 -0.07115887 -0.07115887
000250 be bb 91 bd be bb 91 bd be bb 91 bd be bb 91 bd
       -0.07115887 -0.07115887 -0.07115887 -0.07115887
000260 be bb 91 bd be bb 91 bd be bb 91 bd be bb 91 bd
       -0.07115887 -0.07115887 -0.07115887 -0.07115887
000270 be bb 91 bd be bb 91 bd be bb 91 bd be bb 91 bd
       -0.07115887 -0.07115887 -0.07115887 -0.07115887
000280 be bb 91 bd be bb 91 bd be bb 91 bd be bb 91 bd
       -0.07115887 -0.07115887 -0.07115887 -0.07115887
000290 be bb 91 bd be bb 91 bd be bb 91 bd be bb 91 bd
       -0.07115887 -0.07115887 -0.07115887 -0.07115887
0002a0 be bb 91 bd be bb 91 bd be bb 91 bd be bb 91 bd
       -0.07115887 -0.07115887 -0.07115887 -0.07115887
0002b0 be bb 91 bd be bb 91 bd be bb 91 bd be bb 91 bd
       -0.07115887 -0.07115887 -0.07115887 -0.07115887
0002c0 be bb 91 bd be bb 91 bd be bb 91 bd be bb 91 bd
       -0.07115887 -0.07115887 -0.07115887 -0.07115887
0002d0 be bb 91 bd be bb 91 bd be bb 91 bd be bb 91 bd
       -0.07115887 -0.07115887 -0.07115887 -0.07115887
0002e0 be bb 91 bd be bb 91 bd be bb 91 bd be bb 91 bd
       -0.07115887 -0.07115887 -0.07115887 -0.07115887
0002f0 be bb 91 bd be bb 91 bd be bb 91 bd be bb 91 bd
       -0.07115887 -0.07115887 -0.07115887 -0.07115887
000300 be bb 91 bd be bb 91 bd be bb 91 bd be bb 91 bd
       -0.07115887 -0.07115887 -0.07115887 -0.07115887
000310 be bb 91 bd be bb 91 bd be bb 91 bd be bb 91 bd
       -0.07115887 -0.07115887 -0.07115887 -0.07115887
000320 be bb 91 bd be bb 91 bd be bb 91 bd be bb 91 bd
       -0.07115887 -0.07115887 -0.07115887 -0.07115887
000330 be bb 91 bd be bb 91 bd be bb 91 bd be bb 91 bd
       -0.07115887 -0.07115887 -0.07115887 -0.07115887
000340 be bb 91 bd be bb 91 bd be bb 91 bd be bb 91 bd
       -0.07115887 -0.07115887 -0.07115887 -0.07115887
000350 be bb 91 bd be bb 91 bd be bb 91 bd be bb 91 bd
       -0.07115887 -0.07115887 -0.07115887 -0.07115887
000360 be bb 91 bd be bb 91 bd be bb 91 bd be bb 91 bd
       -0.07115887 -0.07115887 -0.07115887 -0.07115887
000370 be bb 91 bd be bb 91 bd be bb 91 bd be bb 91 bd
       -0.07115887 -0.07115887 -0.07115887 -0.07115887
000380 be bb 91 bd be bb 91 bd be bb 91 bd be bb 91 bd
       -0.07115887 -0.07115887 -0.07115887 -0.07115887
000390 be bb 91 bd be bb 91 bd be bb 91 bd be bb 91 bd
       -0.07115887 -0.07115887 -0.07115887 -0.07115887
0003a0 be bb 91 bd 72 18 79 bd 72 18 79 bd 72 18 79 bd
       -0.07115887 -0.06081433 -0.06081433 -0.06081433
0003b0 72 18 79 bd 72 18 79 bd d1 84 17 3d 0f fc ba 3e
       -0.06081433 -0.06081433 0.036991898 0.3652043
0003c0 0f fc ba 3e 07 f3 0b 3f ad 20 1e 3f ad 20 1e 3f
       0.3652043 0.54667705 0.6176861 0.6176861
0003d0 4c b2 1e 3f 0f 55 1f 3f 1c f5 46 3f 1c f5 46 3f
       0.6199081 0.62239164 0.7771776 0.7771776
0003e0 a6 29 5d 3f 53 38 93 3f 0e 63 93 3f c3 11 9f 3f
       0.86391675 1.1501564 1.1514604 1.2427295
0003f0 7c 5a 9f 3f 7c 5a 9f 3f 7c 5a 9f 3f f2 94 c1 3f
       1.2449489 1.2449489 1.2449489 1.512358

bin_index_range_2 f4 [256]
000000 00 00 00 00 00 00 80 3f 00 00 00 40 00 00 40 40
       0.0 1.0 2.0 3.0
000010 00 00 80 40 00 00 a0 40 00 00 c0 40 00 00 e0 40
       4.0 5.0 6.0 7.0
000020 00 00 00 41 00 00 10 41 00 00 20 41 00 00 30 41
       8.0 9.0 10.0 11.0
000030 00 00 40 41 00 00 50 41 00 00 60 41 00 00 70 41
       12.0 13.0 14.0 15.0
000040 00 00 80 41 00 00 88 41 00 00 90 41 00 00 98 41
       16.0 17.0 18.0 19.0
000050 00 00 a0 41 00 00 a8 41 00 00 b0 41 00 00 b8 41
       20.0 21.0 22.0 23.0
000060 00 00 c0 41 00 00 c8 41 00 00 d0 41 00 00 d8 41
       24.0 25.0 26.0 27.0
000070 00 00 e0 41 00 00 e8 41 00 00 f0 41 00 00 f8 41
       28.0 29.0 30.0 31.0
000080 00 00 00 42 00 00 04 42 00 00 08 42 00 00 0c 42
       32.0 33.0 34.0 35.0
000090 00 00 10 42 00 00 14 42 00 00 18 42 00 00 1c 42
       36.0 37.0 38.0 39.0
0000a0 00 00 20 42 00 00 24 42 00 00 28 42 00 00 2c 42
       40.0 41.0 42.0 43.0
0000b0 00 00 30 42 00 00 34 42 00 00 38 42 00 00 3c 42
       44.0 45.0 46.0 47.0
0000c0 00 00 40 42 00 00 44 42 00 00 48 42 00 00 4c 42
       48.0 49.0 50.0 51.0
0000d0 00 00 50 42 00 00 54 42 00 00 58 42 00 00 5c 42
       52.0 53.0 54.0 55.0
0000e0 00 00 60 42 00 00 64 42 00 00 68 42 00 00 6c 42
       56.0 57.0 58.0 59.0
0000f0 00 00 70 42 00 00 74 42 00 00 78 42 00 00 7c 42
       60.0 61.0 62.0 63.0
000100 00 00 80 42 00 00 82 42 00 00 84 42 00 00 86 42
       64.0 65.0 66.0 67.0
000110 00 00 88 42 00 00 8a 42 00 00 8c 42 00 00 8e 42
       68.0 69.0 70.0 71.0
000120 00 00 90 42 00 00 92 42 00 00 94 42 00 00 96 42
       72.0 73.0 74.0 75.0
000130 00 00 98 42 00 00 9a 42 00 00 9c 42 00 00 9e 42
       76.0 77.0 78.0 79.0
000140 00 00 a0 42 00 00 a2 42 00 00 a4 42 00 00 a6 42
       80.0 81.0 82.0 83.0
000150 00 00 a8 42 00 00 aa 42 00 00 ac 42 00 00 ae 42
       84.0 85.0 86.0 87.0
000160 00 00 b0 42 00 00 b2 42 00 00 b4 42 00 00 b6 42
       88.0 89.0 90.0 91.0
000170 00 00 b8 42 00 00 ba 42 00 00 bc 42 00 00 be 42
       92.0 93.0 94.0 95.0
000180 00 00 c0 42 00 00 c2 42 00 00 c4 42 00 00 c6 42
       96.0 97.0 98.0 99.0
000190 00 00 c8 42 00 00 ca 42 00 00 cc 42 00 00 ce 42
       100.0 101.0 102.0 103.0
0001a0 00 00 d0 42 00 00 d2 42 00 00 d4 42 00 00 d6 42
       104.0 105.0 106.0 107.0
0001b0 00 00 d8 42 00 00 da 42 00 00 dc 42 00 00 de 42
       108.0 109.0 110.0 111.0
0001c0 00 00 e0 42 00 00 e2 42 00 00 e4 42 00 00 e6 42
       112.0 113.0 114.0 115.0
0001d0 00 00 e8 42 00 00 ea 42 00 00 ec 42 00 00 ee 42
       116.0 117.0 118.0 119.0
0001e0 00 00 f0 42 00 00 f2 42 00 00 f4 42 00 00 f6 42
       120.0 121.0 122.0 123.0
0001f0 00 00 f8 42 00 00 fa 42 00 00 fc 42 00 00 fe 42
       124.0 125.0 126.0 127.0
000200 00 00 00 43 00 00 01 43 00 00 02 43 00 00 03 43
       128.0 129.0 130.0 131.0
000210 00 00 04 43 00 00 05 43 00 00 06 43 00 00 07 43
       132.0 133.0 134.0 135.0
000220 00 00 08 43 00 00 09 43 00 00 0a 43 00 00 0b 43
       136.0 137.0 138.0 139.0
000230 00 00 0c 43 00 00 0d 43 00 00 0e 43 00 00 0f 43
       140.0 141.0 142.0 143.0
000240 00 00 10 43 00 00 11 43 00 00 12 43 00 00 13 43
       144.0 145.0 146.0 147.0
000250 00 00 14 43 00 00 15 43 00 00 16 43 00 00 17 43
       148.0 149.0 150.0 151.0
000260 00 00 18 43 00 00 19 43 00 00 1a 43 00 00 1b 43
       152.0 153.0 154.0 155.0
000270 00 00 1c 43 00 00 1d 43 00 00 1e 43 00 00 1f 43
       156.0 157.0 158.0 159.0
000280 00 00 20 43 00 00 21 43 00 00 22 43 00 00 23 43
       160.0 161.0 162.0 163.0
000290 00 00 24 43 00 00 25 43 00 00 26 43 00 00 27 43
       164.0 165.0 166.0 167.0
0002a0 00 00 28 43 00 00 29 43 00 00 2a 43 00 00 2b 43
       168.0 169.0 170.0 171.0
0002b0 00 00 2c 43 00 00 2d 43 00 00 2e 43 00 00 2f 43
       172.0 173.0 174.0 175.0
0002c0 00 00 30 43 00 00 31 43 00 00 32 43 00 00 33 43
       176.0 177.0 178.0 179.0
0002d0 00 00 34 43 00 00 35 43 00 00 36 43 00 00 37 43
       180.0 181.0 182.0 183.0
0002e0 00 00 38 43 00 00 39 43 00 00 3a 43 00 00 3b 43
       184.0 185.0 186.0 187.0
0002f0 00 00 3c 43 00 00 3d 43 00 00 3e 43 00 00 3f 43
       188.0 189.0 190.0 191.0
000300 00 00 40 43 00 00 41 43 00 00 42 43 00 00 43 43
       192.0 193.0 194.0 195.0
000310 00 00 44 43 00 00 45 43 00 00 46 43 00 00 47 43
       196.0 197.0 198.0 199.0
000320 00 00 48 43 00 00 49 43 00 00 4a 43 00 00 4b 43
       200.0 201.0 202.0 203.0
000330 00 00 4c 43 00 00 4d 43 00 00 4e 43 00 00 4f 43
       204.0 205.0 206.0 207.0
000340 00 00 50 43 00 00 51 43 00 00 52 43 00 00 53 43
       208.0 209.0 210.0 211.0
000350 00 00 54 43 00 00 55 43 00 00 56 43 00 00 57 43
       212.0 213.0 214.0 215.0
000360 00 00 58 43 00 00 59 43 00 00 5a 43 00 00 5b 43
       216.0 217.0 218.0 219.0
000370 00 00 5c 43 00 00 5d 43 00 00 5e 43 00 00 5f 43
       220.0 221.0 222.0 223.0
000380 00 00 60 43 00 00 61 43 00 00 62 43 00 00 63 43
       224.0 225.0 226.0 227.0
000390 00 00 64 43 00 00 65 43 00 00 66 43 00 00 67 43
       228.0 229.0 230.0 231.0
0003a0 00 00 68 43 00 00 69 43 00 00 6a 43 00 00 6b 43
       232.0 233.0 234.0 235.0
0003b0 00 00 6c 43 00 00 6d 43 00 00 6e 43 00 00 6f 43
       236.0 237.0 238.0 239.0
0003c0 00 00 70 43 00 00 71 43 00 00 72 43 00 00 73 43
       240.0 241.0 242.0 243.0
0003d0 00 00 74 43 00 00 75 43 00 00 76 43 00 00 77 43
       244.0 245.0 246.0 247.0
0003e0 00 00 78 43 00 00 79 43 00 00 7a 43 00 00 7b 43
       248.0 249.0 250.0 251.0
0003f0 00 00 7c 43 00 00 7d 43 00 00 7e 43 00 00 7f 43
       252.0 253.0 254.0 255.0

bin_scores_3 f4 [75, 1]
000000 00 00 00 00 97 ed 43 3c 83 7e 82 bd b3 84 d3 bd
       0.0 0.011958501 -0.063717864 -0.10328045
000010 b3 84 d3 bd b3 84 d3 bd b3 84 d3 bd b3 84 d3 bd
       -0.10328045 -0.10328045 -0.10328045 -0.10328045
000020 b3 84 d3 bd b3 84 d3 bd 2f 07 d0 bd 2f 07 d0 bd
       -0.10328045 -0.10328045 -0.1015762 -0.1015762
000030 16 ad 02 bd 16 ad 02 bd a8 5a b0 3d 91 40 02 3e
       -0.03190335 -0.03190335 0.08611041 0.12719943
000040 91 40 02 3e 91 40 02 3e 91 40 02 3e b8 57 44 3e
       0.12719943 0.12719943 0.12719943 0.19174087
000050 d8 84 70 3e d8 84 70 3e d8 84 70 3e d8 84 70 3e
       0.23488176 0.23488176 0.23488176 0.23488176
000060 c4 d2 c8 3e c4 d2 c8 3e c4 d2 c8 3e a2 4e 11 3f
       0.392233 0.392233 0.392233 0.5676061
000070 38 c0 15 3f 14 f8 53 3f 14 f8 53 3f 14 f8 53 3f
       0.5849643 0.8280041 0.8280041 0.8280041
000080 14 f8 53 3f 14 f8 53 3f 14 f8 53 3f 48 e8 53 3f
       0.8280041 0.8280041 0.8280041 0.8277631
000090 48 e8 53 3f 48 e8 53 3f fa de 63 3f 00 f9 71 3f
       0.8277631 0.8277631 0.8901211 0.9452057
0000a0 00 f9 71 3f 00 f9 71 3f 00 f9 71 3f 00 f9 71 3f
       0.9452057 0.9452057 0.9452057 0.9452057
0000b0 00 f9 71 3f 00 f9 71 3f 00 f9 71 3f 00 f9 71 3f
       0.9452057 0.9452057 0.9452057 0.9452057
0000c0 3c e4 72 3f 3c e4 72 3f a6 9f 72 3f c9 cb 71 3f
       0.9487951 0.9487951 0.94774854 0.94451576
0000d0 19 f2 90 3f 19 f2 90 3f 95 b6 97 3f 95 b6 97 3f
       1.1323882 1.1323882 1.1852595 1.1852595
0000e0 95 b6 97 3f f4 f4 a1 3f f4 e0 b5 3f f4 e0 b5 3f
       1.1852595 1.2652879 1.4209275 1.4209275
0000f0 f4 e0 b5 3f f4 e0 b5 3f 9e 0f bf 3f 9e 0f bf 3f
       1.4209275 1.4209275 1.4926641 1.4926641
000100 9e 0f bf 3f 76 ae bd 3f 76 ae bd 3f 76 ae bd 3f
       1.4926641 1.4818866 1.4818866 1.4818866
000110 21 20 de 3f 70 ad dd 3f fa ed c9 3f 73 5e ca 3f
       1.7353555 1.7318554 1.577575 1.5810074
000120 2b d1 ca 3f 07 0e da 3f 4f d1 d9 3f
       1.5845083 1.7035531 1.7017001

bin_index_range_3 f4 [75]
000000 00 00 00 00 00 00 80 3f 00 00 00 40 00 00 40 40
       0.0 1.0 2.0 3.0
000010 00 00 80 40 00 00 a0 40 00 00 c0 40 00 00 e0 40
       4.0 5.0 6.0 7.0
000020 00 00 00 41 00 00 10 41 00 00 20 41 00 00 30 41
       8.0 9.0 10.0 11.0
000030 00 00 40 41 00 00 50 41 00 00 60 41 00 00 70 41
       12.0 13.0 14.0 15.0
000040 00 00 80 41 00 00 88 41 00 00 90 41 00 00 98 41
       16.0 17.0 18.0 19.0
000050 00 00 a0 41 00 00 a8 41 00 00 b0 41 00 00 b8 41
       20.0 21.0 22.0 23.0
000060 00 00 c0 41 00 00 c8 41 00 00 d0 41 00 00 d8 41
       24.0 25.0 26.0 27.0
000070 00 00 e0 41 00 00 e8 41 00 00 f0 41 00 00 f8 41
       28.0 29.0 30.0 31.0
000080 00 00 00 42 00 00 04 42 00 00 08 42 00 00 0c 42
       32.0 33.0 34.0 35.0
000090 00 00 10 42 00 00 14 42 00 00 18 42 00 00 1c 42
       36.0 37.0 38.0 39.0
0000a0 00 00 20 42 00 00 24 42 00 00 28 42 00 00 2c 42
       40.0 41.0 42.0 43.0
0000b0 00 00 30 42 00 00 34 42 00 00 38 42 00 00 3c 42
       44.0 45.0 46.0 47.0
0000c0 00 00 40 42 00 00 44 42 00 00 48 42 00 00 4c 42
       48.0 49.0 50.0 51.0
0000d0 00 00 50 42 00 00 54 42 00 00 58 42 00 00 5c 42
       52.0 53.0 54.0 55.0
0000e0 00 00 60 42 00 00 64 42 00 00 68 42 00 00 6c 42
       56.0 57.0 58.0 59.0
0000f0 00 00 70 42 00 00 74 42 00 00 78 42 00 00 7c 42
       60.0 61.0 62.0 63.0
000100 00 00 80 42 00 00 82 42 00 00 84 42 00 00 86 42
       64.0 65.0 66.0 67.0
000110 00 00 88 42 00 00 8a 42 00 00 8c 42 00 00 8e 42
       68.0 69.0 70.0 71.0
000120 00 00 90 42 00 00 92 42 00 00 94 42
       72.0 73.0 74.0

bin_scores_4 f4 [256, 1]
000000 00 00 00 00 75 8a 06 bc de b9 d8 3f 00 b7 22 40
       0.0 -0.008211722 1.6931722 2.5424194
000010 c8 30 27 40 eb 3f 48 40 eb 3f 48 40 97 78 49 40
       2.6123524 3.1289012 3.1289012 3.1479852
000020 a1 cd 48 40 a1 cd 48 40 a1 cd 48 40 a1 cd 48 40
       3.1375506 3.1375506 3.1375506 3.1375506
000030 a1 cd 48 40 a1 cd 48 40 a1 cd 48 40 a1 cd 48 40
       3.1375506 3.1375506 3.1375506 3.1375506
000040 a1 cd 48 40 a1 cd 48 40 a1 cd 48 40 a1 cd 48 40
       3.1375506 3.1375506 3.1375506 3.1375506
000050 a1 cd 48 40 a1 cd 48 40 a1 cd 48 40 a1 cd 48 40
       3.1375506 3.1375506 3.1375506 3.1375506
000060 24 55 30 40 24 55 30 40 24 55 30 40 24 55 30 40
       2.7551966 2.7551966 2.7551966 2.7551966
000070 24 55 30 40 24 55 30 40 24 55 30 40 24 55 30 40
       2.7551966 2.7551966 2.7551966 2.7551966
000080 24 55 30 40 24 55 30 40 24 55 30 40 24 55 30 40
       2.7551966 2.7551966 2.7551966 2.7551966
000090 24 55 30 40 24 55 30 40 24 55 30 40 24 55 30 40
       2.7551966 2.7551966 2.7551966 2.7551966
0000a0 99 32 39 40 cd 05 3c 40 cd 05 3c 40 cd 05 3c 40
       2.8937132 2.937854 2.937854 2.937854
0000b0 cd 05 3c 40 cd 05 3c 40 cd 05 3c 40 97 90 3c 40
       2.937854 2.937854 2.937854 2.946325
0000c0 97 90 3c 40 97 90 3c 40 97 90 3c 40 97 90 3c 40
       2.946325 2.946325 2.946325 2.946325
0000d0 97 90 3c 40 25 ab 3c 40 25 ab 3c 40 25 ab 3c 40
       2.946325 2.9479458 2.9479458 2.9479458
0000e0 25 ab 3c 40 25 ab 3c 40 25 ab 3c 40 25 ab 3c 40
       2.9479458 2.9479458 2.9479458 2.9479458
0000f0 25 ab 3c 40 25 ab 3c 40 25 ab 3c 40 b6 60 41 40
       2.9479458 2.9479458 2.9479458 3.0215278
000100 b6 60 41 40 df 34 42 40 df 34 42 40 df 34 42 40
       3.0215278 3.034477 3.034477 3.034477
000110 df 34 42 40 df 34 42 40 df 34 42 40 df 34 42 40
       3.034477 3.034477 3.034477 3.034477
000120 df 34 42 40 df 34 42 40 df 34 42 40 df 34 42 40
       3.034477 3.034477 3.034477 3.034477
000130 df 34 42 40 df 34 42 40 df 34 42 40 df 34 42 40
       3.034477 3.034477 3.034477 3.034477
000140 df 34 42 40 df 34 42 40 df 34 42 40 df 34 42 40
       3.034477 3.034477 3.034477 3.034477
000150 df 34 42 40 df 34 42 40 df 34 42 40 df 34 42 40
       3.034477 3.034477 3.034477 3.034477
000160 df 34 42 40 df 34 42 40 df 34 42 40 df 34 42 40
       3.034477 3.034477 3.034477 3.034477
000170 df 34 42 40 df 34 42 40 df 34 42 40 df 34 42 40
       3.034477 3.034477 3.034477 3.034477
000180 df 34 42 40 df 34 42 40 df 34 42 40 df 34 42 40
       3.034477 3.034477 3.034477 3.034477
000190 df 34 42 40 df 34 42 40 df 34 42 40 df 34 42 40
       3.034477 3.034477 3.034477 3.034477
0001a0 df 34 42 40 df 34 42 40 df 34 42 40 df 34 42 40
       3.034477 3.034477 3.034477 3.034477
0001b0 df 34 42 40 df 34 42 40 df 34 42 40 df 34 42 40
       3.034477 3.034477 3.034477 3.034477
0001c0 df 34 42 40 df 34 42 40 df 34 42 40 df 34 42 40
       3.034477 3.034477 3.034477 3.034477
0001d0 7a 16 4f 40 7a 16 4f 40 7a 16 4f 40 7a 16 4f 40
       3.2357469 3.2357469 3.2357469 3.2357469
0001e0 7a 16 4f 40 7a 16 4f 40 7a 16 4f 40 7a 16 4f 40
       3.2357469 3.2357469 3.2357469 3.2357469
0001f0 7a 16 4f 40 7a 16 4f 40 7a 16 4f 40 7a 16 4f 40
       3.2357469 3.2357469 3.2357469 3.2357469
000200 7a 16 4f 40 7a 16 4f 40 7a 16 4f 40 7a 16 4f 40
       3.2357469 3.2357469 3.2357469 3.2357469
000210 7a 16 4f 40 7a 16 4f 40 7a 16 4f 40 7a 16 4f 40
       3.2357469 3.2357469 3.2357469 3.2357469
000220 7a 16 4f 40 7a 16 4f 40 7a 16 4f 40 7a 16 4f 40
       3.2357469 3.2357469 3.2357469 3.2357469
000230 7a 16 4f 40 7a 16 4f 40 60 1e 56 40 60 1e 56 40
       3.2357469 3.2357469 3.345604 3.345604
000240 60 1e 56 40 60 1e 56 40 60 1e 56 40 60 1e 56 40
       3.345604 3.345604 3.345604 3.345604
000250 60 1e 56 40 60 1e 56 40 60 1e 56 40 60 1e 56 40
       3.345604 3.345604 3.345604 3.345604
000260 60 1e 56 40 60 1e 56 40 60 1e 56 40 60 1e 56 40
       3.345604 3.345604 3.345604 3.345604
000270 60 1e 56 40 60 1e 56 40 60 1e 56 40 cd cb 38 40
       3.345604 3.345604 3.345604 2.887439
000280 cd cb 38 40 cd cb 38 40 cd cb 38 40 cd cb 38 40
       2.887439 2.887439 2.887439 2.887439
000290 e0 ab 64 40 e0 ab 64 40 22 0d 6d 40 22 0d 6d 40
       3.5729904 3.5729904 3.7039266 3.7039266
0002a0 22 0d 6d 40 22 0d 6d 40 12 90 67 40 12 90 67 40
       3.7039266 3.7039266 3.6181684 3.6181684
0002b0 12 90 67 40 12 90 67 40 12 90 67 40 12 90 67 40
       3.6181684 3.6181684 3.6181684 3.6181684
0002c0 12 90 67 40 12 90 67 40 12 90 67 40 12 90 67 40
       3.6181684 3.6181684 3.6181684 3.6181684
0002d0 12 90 67 40 12 90 67 40 12 90 67 40 12 90 67 40
       3.6181684 3.6181684 3.6181684 3.6181684
0002e0 12 90 67 40 12 90 67 40 12 90 67 40 12 90 67 40
       3.6181684 3.6181684 3.6181684 3.6181684
0002f0 12 90 67 40 12 90 67 40 12 90 67 40 12 90 67 40
       3.6181684 3.6181684 3.6181684 3.6181684
000300 12 90 67 40 12 90 67 40 12 90 67 40 12 90 67 40
       3.6181684 3.6181684 3.6181684 3.6181684
000310 d1 f8 67 40 d1 f8 67 40 d1 f8 67 40 d1 f8 67 40
       3.6245615 3.6245615 3.6245615 3.6245615
000320 d1 f8 67 40 d1 f8 67 40 d1 f8 67 40 d1 f8 67 40
       3.6245615 3.6245615 3.6245615 3.6245615
000330 d1 f8 67 40 d1 f8 67 40 d1 f8 67 40 d1 f8 67 40
       3.6245615 3.6245615 3.6245615 3.6245615
000340 d1 f8 67 40 d1 f8 67 40 d1 f8 67 40 d1 f8 67 40
       3.6245615 3.6245615 3.6245615 3.6245615
000350 d1 f8 67 40 d1 f8 67 40 d1 f8 67 40 d1 f8 67 40
       3.6245615 3.6245615 3.6245615 3.6245615
000360 d1 f8 67 40 84 bb 66 40 ec d3 72 40 ec d3 72 40
       3.6245615 3.605195 3.7941847 3.7941847
000370 ec d3 72 40 ec d3 72 40 ec d3 72 40 ec d3 72 40
       3.7941847 3.7941847 3.7941847 3.7941847
000380 ec d3 72 40 ec d3 72 40 ec d3 72 40 f7 02 80 40
       3.7941847 3.7941847 3.7941847 4.000362
000390 f7 02 80 40 b0 ec 76 40 b0 ec 76 40 b0 ec 76 40
       4.000362 3.8581963 3.8581963 3.8581963
0003a0 b0 ec 76 40 b0 ec 76 40 b0 ec 76 40 b0 ec 76 40
       3.8581963 3.8581963 3.8581963 3.8581963
0003b0 b0 ec 76 40 b0 ec 76 40 b0 ec 76 40 b0 ec 76 40
       3.8581963 3.8581963 3.8581963 3.8581963
0003c0 b0 ec 76 40 b0 ec 76 40 b0 ec 76 40 47 8e 75 40
       3.8581963 3.8581963 3.8581963 3.836809
0003d0 ec 5f 6c 40 eb ce 7f 40 eb ce 7f 40 eb ce 7f 40
       3.6933546 3.9970043 3.9970043 3.9970043
0003e0 c4 ac 89 40 9e 84 89 40 9e 84 89 40 9e 84 89 40
       4.3023396 4.2974386 4.2974386 4.2974386
0003f0 9e 84 89 40 9e 84 89 40 9e 84 89 40 9e 84 89 40
       4.2974386 4.2974386 4.2974386 4.2974386
